models/quant_model.tflite (tflite, 19760 bytes, 33 tensors)

ArtWayClass/conv2d/BiasAdd/ReadVariableOp/resource f4 [3]
0.634182 0.4682644 0.54500103
00000000: c059 223f 5ac0 ef3e 3085 0b3f

ArtWayClass/conv2d_1/BiasAdd/ReadVariableOp/resource f4 [6]
0.101896584 0.25049248 0.6239644 0.5520951 1.1237059 1.4720755
00000000: 28af d03d 8d40 803e 22bc 1f3f 1b56 0d3f
00000010: 98d5 8f3f f86c bc3f

ArtWayClass/dense/BiasAdd/ReadVariableOp/resource f4 [10]
-0.6250684 -0.3873646 0.91606355 -0.7992919 -0.23968135 -0.29877952 0.91114193 -0.779502
0.4321117 0.870363
00000000: 7c04 20bf a754 c6be 2483 6a3f 659e 4cbf
00000010: 076f 75be a1f9 98be 9940 693f 718d 47bf
00000020: bf3d dd3e 1cd0 5e3f

ArtWayClass/separable_conv2d/BiasAdd/ReadVariableOp/resource f4 [12]
0.3919986 0.25903463 0.26491153 0.17536101 0.146217 -0.3923315 -0.440297 -0.29419434
-0.06770405 0.13481742 -0.6778298 0.26560444
00000000: 0ab4 c83e 30a0 843e 7ca2 873e d691 333e
00000010: e9b9 153e addf c8be 9c6e e1be a4a0 96be
00000020: 6ca8 8abd 940d 0a3e 4186 2dbf 4efd 873e

ArtWayClass/separable_conv2d_1/BiasAdd/ReadVariableOp/resource f4 [24]
-0.0148572065 -0.25264695 -0.058248743 -0.13974287 -0.28573027 0.03595004 -0.42498162 -0.23880957
-0.23995648 0.2577393 -0.17815894 -0.08872754 -0.66947633 0.016389336 -0.18416329 0.059701227
0.02884764 0.112203814 -0.5583784 0.28441513 0.04880972 0.88361853 0.003532152 0.14394319
00000000: a46b 73bc f15a 81be 3c96 6ebd c118 0fbe
00000010: 3d4b 92be 5940 133d 3197 d9be 7f8a 74be
00000020: 27b7 75be 68f6 833e 4c6f 36be c9b6 b5bd
00000030: cd62 2bbf ee42 863c 4d95 3cbe 4689 743d
00000040: e351 ec3c 1dcb e53d e3f1 0ebf dc9e 913e
00000050: b3ec 473d d334 623f ad7b 673b d865 133e

ArtWayClass/separable_conv2d_2/BiasAdd/ReadVariableOp/resource f4 [12]
-0.64756906 0.011696873 0.53189445 0.664372 -0.11346505 -0.04222492 -0.89798176 0.21920782
-0.34803855 -0.04205515 -0.003065888 -0.24445492
00000000: 16c7 25bf 3ea4 3f3c 3c2a 083f 4914 2a3f
00000010: 5d60 e8bd 0af4 2cbd 22e2 65bf 0478 603e
00000020: 1c32 b2be 0542 2cbd 11ed 48bb 6452 7abe

ArtWayClass/separable_conv2d_3/BiasAdd/ReadVariableOp/resource f4 [12]
0.3805724 0.2584991 0.93710977 0.5853327 0.40967715 0.72670835 0.5917355 0.4697911
0.6064812 0.41229343 0.4082601 0.38129464
00000000: 63da c23e fe59 843e 6de6 6f3f 5dd8 153f
00000010: 34c1 d13e 8f09 3a3f fa7b 173f 7688 f03e
00000020: 5a42 1b3f 2018 d33e 7807 d13e 0d39 c33e

ArtWayClass/batch_normalization/FusedBatchNormV3 f4 [3]
-1.8037527 -1.0733738 -1.0084829
00000000: 5ee1 e6bf 5064 89bf f815 81bf

ArtWayClass/batch_normalization/FusedBatchNormV31 f4 [3]
1.6090344 1.651953 0.31111982
00000000: d7f4 cd3f 3273 d33f 194b 9f3e

ArtWayClass/batch_normalization_1/FusedBatchNormV3 f4 [6]
-0.88377976 -0.32354063 -1.5751411 -0.763396 -2.4520783 -0.46201742
00000000: 643f 62bf 1ea7 a5be 399e c9bf ec6d 43bf
00000010: daee 1cc0 8c8d ecbe

ArtWayClass/batch_normalization_1/FusedBatchNormV31 f4 [6]
1.4589635 0.36799777 0.7941017 0.5304945 0.6154688 0.5287697
00000000: 51bf ba3f 346a bc3e 404a 4b3f 7dce 073f
00000010: 5d8f 1d3f 735d 073f

ArtWayClass/batch_normalization_2/FusedBatchNormV3 f4 [12]
-0.8614767 -1.3747181 -0.101887524 -0.66731167 -0.8761053 -0.5456961 -0.533467 0.054734007
-0.3858831 -0.09998906 -1.2283237 -0.630192
00000000: bd89 5cbf c3f6 afbf 68aa d0bd f0d4 2abf
00000010: 7048 60bf bdb2 0bbf 4b91 08bf c430 603d
00000020: 7892 c5be 10c7 ccbd b639 9dbf 4354 21bf

ArtWayClass/batch_normalization_2/FusedBatchNormV31 f4 [12]
0.40937096 0.71954995 0.42410097 0.564075 0.75213724 0.3836723 0.4497563 0.2876963
0.37873122 0.34737545 0.34584984 0.65954375
00000000: 1299 d13e 6d34 383f c323 d93e 3867 103f
00000010: 118c 403f b270 c43e 7546 e63e ee4c 933e
00000020: 0fe9 c13e 32db b13e 3b13 b13e dcd7 283f

ArtWayClass/batch_normalization_3/FusedBatchNormV3 f4 [24]
-1.6834531 -0.9804591 -0.5569562 -0.47473624 -0.9801667 -1.3721936 -0.22261688 0.38908803
-0.11256705 -2.281893 -0.43584284 -1.0508773 -0.46044284 -0.2720473 -0.33585045 0.064688504
-0.64654773 -1.2832389 -0.6475184 -0.42559794 -0.04105106 -1.7015774 -0.17862973 -1.2279886
00000000: 647b d7bf 5eff 7abf ae94 0ebf a110 f3be
00000010: 34ec 7abf 0aa4 afbf aef5 63be 8c36 c73e
00000020: 8e89 e6bd 890a 12c0 cb26 dfbe 2683 86bf
00000030: 2abf ebbe c949 8bbe 97f4 abbe 687b 843d
00000040: 2784 25bf 2c41 a4bf c4c3 25bf f9e7 d9be
00000050: 2825 28bd 4acd d9bf b6ea 36be bb2e 9dbf

ArtWayClass/batch_normalization_3/FusedBatchNormV31 f4 [24]
0.7581094 0.5511732 0.31244257 0.5639869 0.42966267 0.52349705 1.1682217 0.41944483
0.5615729 0.26185086 0.29369614 1.2266049 0.5095278 0.30842564 0.65465665 0.3121283
0.3712477 0.5866581 0.8116542 0.29683164 2.543793 0.66501826 0.43350515 0.46156117
00000000: 7513 423f b019 0d3f 79f8 9f3e 7261 103f
00000010: bffc db3e e703 063f 4a88 953f 79c1 d63e
00000020: 3ec3 0f3f 5111 863e 575f 963e 6401 9d3f
00000030: 6a70 023f f7e9 9d3e 9497 273f 48cf 9f3e
00000040: 2e14 be3e 3a2f 163f 92c8 4f3f 51fa 973e
00000050: 81cd 2240 a33e 2a3f 63f4 dd3e bf51 ec3e

ArtWayClass/batch_normalization_4/FusedBatchNormV3 f4 [12]
-0.20259011 -0.19554281 -1.2330732 -1.5162424 -0.2300866 -0.31531593 -0.5437838 -0.45969483
-0.6958696 -1.0763304 -0.39439255 -0.500726
00000000: c873 4fbe 603c 48be 58d5 9dbf 3b14 c2bf
00000010: d29b 6bbe 1771 a1be 6a35 0bbf 1f5d ebbe
00000020: 8324 32bf 32c5 89bf d2ed c9be 942f 00bf

ArtWayClass/batch_normalization_4/FusedBatchNormV31 f4 [12]
0.68137074 0.63006216 0.73198736 0.551716 0.31066838 0.4732952 0.6766639 0.49571452
0.7836421 0.86181647 0.58619195 0.69046074
00000000: 506e 2e3f c14b 213f 8663 3b3f 433d 0d3f
00000010: ed0f 9f3e c053 f23e d839 2d3f 4bce fd3e
00000020: c59c 483f 01a0 5c3f ad10 163f 09c2 303f

ArtWayClass/batch_normalization_5/FusedBatchNormV3 f4 [12]
-1.0627431 -1.851245 -1.6626284 -1.6815715 -1.5783303 -2.1715775 -1.1834884 -0.7798918
-1.6435217 -1.581533 -1.3769011 -2.1692307
00000000: f707 88bf 99f5 ecbf 02d1 d4bf bc3d d7bf
00000010: ba06 cabf 20fb 0ac0 8c7c 97bf fda6 47bf
00000020: eb5e d2bf ac6f cabf 4c3e b0bf add4 0ac0

ArtWayClass/batch_normalization_5/FusedBatchNormV31 f4 [12]
0.37742978 0.2955195 0.35516042 0.27611423 0.44339457 0.46567443 0.29154944 0.37761328
0.31428427 0.4024625 0.38175383 0.38997442
00000000: 7a3e c13e 554e 973e 96d7 b53e d85e 8d3e
00000010: 9d04 e33e e16c ee3e f845 953e 8756 c13e
00000020: dee9 a03e 910f ce3e 3d75 c33e baaa c73e

ArtWayClass/dense/MatMul i1 [10, 192] scale=0.009036605 zero_point=0
0.15362228 -0.28013477 -0.45183027 0.23495173 0.0 -0.009036605 -0.3614642 -0.22591513
-0.054219633 0.03614642 -0.045183025 -0.11747587 0.3614642 -0.3343544 -0.01807321 0.39761063
-0.054219633 0.08132945 -0.11747587 -0.28917137 -0.09940266 0.01807321 -0.18976872 -0.054219633
0.25302494 -0.03614642 0.22591513 0.42472044 -0.12651247 0.03614642 0.10843927 -0.20784192
-0.03614642 -0.027109817 -0.063256234 0.42472044 0.063256234 -0.027109817 0.1807321 0.13554908
-0.10843927 0.15362228 -0.03614642 -0.343391 0.23495173 0.08132945 -0.14458568 0.19880532
0.26206157 0.01807321 -0.10843927 0.3343544 -0.12651247 0.08132945 0.13554908 -0.28917137
0.01807321 -0.3343544 -0.61448914 0.0 0.46990347 -0.21687853 -0.41568384 0.46086687
0.46086687 -0.39761063 0.52412313 -0.09940266 -0.7048552 -0.7500382 -0.4970133 -0.56930614
0.39761063 -0.21687853 0.009036605 0.38857403 0.09036605 -0.18976872 0.25302494 -0.09036605
-0.3614642 0.1626589 0.03614642 -0.11747587 0.08132945 -0.08132945 0.1626589 0.27109817
-0.3253178 0.0 -0.1716955 -0.3253178 0.48797667 0.22591513 -0.027109817 0.10843927
0.1807321 0.08132945 -0.13554908 0.28917137 -0.07229284 -0.009036605 -0.10843927 -0.1716955
0.13554908 -0.01807321 -0.55123293 0.20784192 0.48797667 -0.09940266 -0.12651247 0.44279367
0.37953743 -0.5150865 0.3705008 -0.009036605 -0.01807321 -0.20784192 -0.3524276 -0.027109817
0.43375707 -0.28013477 -0.26206157 0.3343544 -0.25302494 -0.20784192 0.09940266 -0.48797667
-0.027109817 0.12651247 -0.063256234 -0.28917137 0.009036605 0.0 -0.20784192 -0.009036605
-0.13554908 -0.01807321 -0.13554908 -0.3705008 0.1716955 0.07229284 -0.027109817 -0.009036605
0.1716955 -0.15362228 0.045183025 0.10843927 0.03614642 -0.09036605 -0.009036605 -0.08132945
0.03614642 -0.07229284 -0.13554908 0.14458568 0.09036605 -0.07229284 -0.03614642 0.21687853
0.063256234 -0.27109817 0.009036605 -0.3343544 0.09036605 0.09940266 -0.12651247 0.11747587
-0.01807321 0.10843927 0.0 0.07229284 -0.46086687 0.13554908 -0.09036605 -0.41568384
0.27109817 -0.1807321 -0.3705008 0.29820797 0.009036605 0.15362228 0.01807321 0.15362228
0.11747587 0.009036605 -0.009036605 0.01807321 0.054219633 -0.045183025 -0.045183025 0.15362228
-0.11747587 -0.045183025 -0.24398834 0.22591513 0.009036605 0.11747587 -0.46990347 -0.3524276
0.343391 0.09036605 0.0 0.45183027 0.1807321 -0.3343544 -0.6958186 0.10843927
-0.26206157 0.18976872 -0.7048552 -0.92173374 0.1626589 0.045183025 0.0 0.43375707
0.07229284 -0.23495173 -0.48797667 0.18976872 -0.27109817 0.23495173 -0.28013477 -0.79522127
0.14458568 -0.01807321 0.009036605 0.26206157 -0.009036605 0.08132945 -0.09940266 -0.009036605
-0.23495173 0.24398834 0.01807321 -0.26206157 0.3343544 0.07229284 -0.14458568 0.18976872
0.1626589 -0.31628117 -0.53315973 0.25302494 -0.19880532 0.18976872 -0.7138918 -0.45183027
0.22591513 0.15362228 0.0 0.28013477 0.29820797 -0.26206157 -0.44279367 0.3253178
00000000: 11e1 ce1a 00ff d8e7 fa04 fbf3 28db fe2c
00000010: fa09 f3e0 f502 ebfa 1cfc 192f f204 0ce9
00000020: fcfd f92f 07fd 140f f411 fcda 1a09 f016
00000030: 1d02 f425 f209 0fe0 02db bc00 34e8 d233
00000040: 33d4 3af5 b2ad c9c1 2ce8 012b 0aeb 1cf6
00000050: d812 04f3 09f7 121e dc00 eddc 3619 fd0c
00000060: 1409 f120 f8ff f4ed 0ffe c317 36f5 f231
00000070: 2ac7 29ff fee9 d9fd 30e1 e325 e4e9 0bca
00000080: fd0e f9e0 0100 e9ff f1fe f1d7 1308 fdff
00000090: 13ef 050c 04f6 fff7 04f8 f110 0af8 fc18
000000a0: 07e2 01db 0a0b f20d fe0c 0008 cd0f f6d2
000000b0: 1eec d721 0111 0211 0d01 ff02 06fb fb11
000000c0: f3fb e519 010d ccd9 260a 0032 14db b30c
000000d0: e315 b29a 1205 0030 08e6 ca15 e21a e1a8
000000e0: 10fe 011d ff09 f5ff e61b 02e3 2508 f015
000000f0: 12dd c51c ea15 b1ce 1911 001f 21e3 cf24

ArtWayClass/conv2d/Conv2D f4 [3, 3, 3, 3]
0.19168855 0.2355311 -0.28131256 0.20223165 -0.10234741 -0.42876974 0.8147121 0.40035504
0.38973486 0.67635274 0.012995313 0.56016797 0.10241586 0.31935653 0.4236626 -0.029137023
-0.1471325 -0.11795425 -0.05812643 -0.4831906 -0.15376042 -0.3831345 -0.1324482 -0.30218652
0.35707763 -0.4284022 -0.44121668 0.4464275 -0.10817491 -0.31216386 0.9427213 0.08866686
-0.4153318 0.70593643 -0.05654833 -0.8264004 0.42801055 0.28235817 -0.6965369 0.80567396
-0.2792618 -0.4865044 1.0933402 -0.061511945 -0.29367214 0.21773182 -0.04349995 -0.55650187
0.8461774 0.019953797 -0.59045935 1.6391642 0.4122036 0.17673525 0.7380141 0.9135931
0.29794192 0.9396856 1.0133888 0.9473981 0.77980834 0.5966557 0.37776887 0.97145087
0.33203822 0.17298505 1.0185637 0.83020747 0.81144387 0.59462357 -0.00022898483 -0.012512259
1.2724639 1.3146737 0.6038189 0.9644223 0.6155787 0.7906362 0.24470046 -0.08347043
0.26032728
00000000: 014a 443e 112f 713e 3308 90be d015 4f3e
00000010: 859b d1bd b587 dbbe f990 503f 56fb cc3e
00000020: 548b c73e 7425 2d3f 4bea 543c 2b67 0f3f
00000030: 68bf d13d b382 a33e 4eea d83e c4b0 eebc
00000040: e7a9 16be ff91 f1bd fb15 6ebd c264 f7be
00000050: 5f73 1dbe 352a c4be 80a0 07be 31b8 9abe
00000060: e1d2 b63e 8857 dbbe 27e7 e1be 2592 e43e
00000070: cf8a ddbd f1d3 9fbe 2f56 713f f896 b53d
00000080: 5fa6 d4be 40b8 343f 399f 67bd fa8e 53bf
00000090: 3324 db3e 4091 903e 3e50 32bf a640 4e3f
000000a0: 67fb 8ebe 1b17 f9be 92f2 8b3f f3f3 7bbd
000000b0: 325c 96be 17f5 5e3e 012d 32bd e876 0ebf
000000c0: 159f 583f 2576 a33c 5828 17bf 22d0 d13f
000000d0: 5a0c d33e 16fa 343e 7eee 3c3f 3de1 693f
000000e0: d88b 983e 3c8f 703f b9b6 813f af88 723f
000000f0: 85a1 473f 6ebe 183f ec6a c13e 01b1 783f
00000100: ea00 aa3e fe22 313e 4c60 823f 7a88 543f
00000110: c9ba 4f3f 4039 183f a61b 70b9 3800 4dbc
00000120: 19e0 a23f 3a47 a83f e093 1a3f 61e4 763f
00000130: 9196 1d3f 2267 4a3f c292 7a3e 8bf2 aabd
00000140: 9e49 853e

ArtWayClass/conv2d_1/Conv2D f4 [6, 3, 3, 3]
-0.4354131 1.3464311 -0.62875766 0.083244696 -0.67594177 0.11126157 0.11149906 0.054311894
0.5133759 -0.4460325 0.61845237 -0.6124539 -0.16519848 -0.6708118 0.41145393 -0.07203355
0.0074061155 -0.00073774933 0.5738538 -0.51176846 -0.3435927 -0.22133535 0.03062356 -0.18622684
-0.10545499 0.0072589186 -0.054603852 0.07435336 0.506886 0.07841896 0.20520876 -0.08008618
-0.016184594 -0.09176777 0.051601425 -0.072472565 -0.15566653 0.45849857 0.34293714 0.30696473
-0.45764026 0.5201984 0.4569983 -0.45255345 0.71123433 0.1596482 0.41415733 0.5799084
0.5750709 0.24659088 0.9363939 0.37733576 0.09981319 0.10038464 -0.24920143 0.053459372
-0.07953806 -0.7633791 -0.5079242 -0.27493715 0.20028232 -0.89378875 -0.40995947 0.5835116
-0.6315006 -0.09632171 -0.08651747 0.13374652 -0.2657334 1.0552322 -0.032767817 0.65678257
-0.7937472 -0.20035142 -0.5517964 -0.38181165 -0.5126841 0.36910632 -0.2552297 0.4335043
0.8403468 -0.22206978 0.47900885 0.052517716 -0.20904182 0.08505079 -0.10792235 -0.5472308
0.44831052 -0.21226452 -0.013573307 0.7043202 -0.48859173 -0.34675476 0.30460128 -0.07508458
-0.4253523 0.43176112 -0.029891565 -0.17401797 0.5486369 -0.3720052 0.19119127 0.5159405
-0.4079619 0.24085517 0.5930253 0.11585479 -0.35121432 -0.5796079 -0.36052167 -0.18917255
0.085088 -0.6854321 -0.42947927 0.022144195 -0.11646057 -0.5109719 -0.34040877 -0.22989906
0.050813038 -0.3907504 -0.2712691 0.08060683 -0.5599546 -0.03916643 -0.12890711 -0.5582987
0.04430984 0.07586345 -0.5304765 -0.50007224 0.10070139 -0.013427432 -0.35982662 -0.3536027
0.18439123 0.49986503 -0.04870411 0.1223855 0.7193354 -0.17387141 -0.244106 0.37590677
0.4261701 -0.024422042 -0.24090017 -0.058404703 0.39692432 0.39365318 -0.010250497 0.71164966
0.33878207 0.10271378 -0.25424442 -0.83871824 0.05111025 0.2880782 0.084660925 -0.011492946
0.05231108 -0.03956596
00000000: 77ee debe db57 ac3f 43f6 20bf 327c aa3d
00000010: 850a 2dbf 1bdd e33d 9f59 e43d 2676 5e3d
00000020: 9a6c 033f 5f5e e4be e552 1e3f c7c9 1cbf
00000030: ca29 29be 52ba 2bbf 17aa d23e 5386 93bd
00000040: 00af f23b 8565 41ba 15e8 123f 4203 03bf
00000050: 62eb afbe bca5 62be 43de fa3c 40b2 3ebe
00000060: c9f8 d7bd 39dc ed3b 4aa8 5fbd 9346 983d
00000070: 48c3 013f 1f9a a03d 3f22 523e 3904 a4bd
00000080: 8e95 84bc bef0 bbbd 045c 533d 7f6c 94bd
00000090: 0c67 1fbe 53c0 ea3e 7595 af3e 7b2a 9d3e
000000a0: d34f eabe b92b 053f aefb e93e 16b5 e7be
000000b0: 7413 363f d17a 233e 6e0c d43e e074 143f
000000c0: d937 133f 5282 7c3e 83b7 6f3f 2732 c13e
000000d0: dc6a cc3d 7696 cd3d a92e 7fbe 37f8 5a3d
000000e0: dae4 a2bd d06c 43bf 5207 02bf 90c4 8cbe
000000f0: cf16 4d3e 57cf 64bf 35e6 d1be 0461 153f
00000100: 06aa 21bf 5144 c5bd 1230 b1bd d9f4 083e
00000110: 350e 88be d911 873f 8c37 06bd e722 283f
00000120: 0433 4bbf ec28 4dbe 8742 0dbf d17c c3be
00000130: 443f 03bf 81fb bc3e 78ad 82be 47f4 dd3e
00000140: f820 573f 4366 63be a640 f53e d11c 573d
00000150: 0f0f 56be 1c2f ae3d 6506 ddbd 5117 0cbf
00000160: f588 e53e df5b 59be 9362 5ebc 544e 343f
00000170: b228 fabe d789 b1be b3f4 9b3e f2c5 99bd
00000180: c7c7 d9be cb0f dd3e 28df f4bc c431 32be
00000190: 7873 0c3f 7777 bebe a5c7 433e ad14 043f
000001a0: 62e0 d0be bda2 763e 82d0 173f 4745 ed3d
000001b0: 5dd2 b3be 2f61 14bf 4c96 b8be 73b6 41be
000001c0: 9e42 ae3d 7a78 2fbf b5e4 dbbe be67 b53c
000001d0: e182 eebd 0ecf 02bf 0f4a aebe a96a 6bbe
000001e0: 5521 503d 7010 c8be c9e3 8abe 3215 a53d
000001f0: 2f59 0fbf fa6c 20bd 3a00 04be aaec 0ebf
00000200: 3c7e 353d 4c5e 9b3d 4fcd 07bf bc04 00bf
00000210: 883c ce3d bbfe 5bbc 323b b8be 6a0b b5be
00000220: 0ed1 3c3e 4fee ff3e f67d 47bd 40a5 fa3d
00000230: 5d26 383f 590b 32be ecf6 79be da76 c03e
00000240: f832 da3e bc10 c8bc 89ae 76be c539 6fbd
00000250: aa39 cb3e e98c c93e b3f1 27bc ac2e 363f
00000260: d874 ad3e 9a5b d23d 532c 82be 3db6 56bf
00000270: fb58 513d fc7e 933e b562 ad3d e94c 3cbc
00000280: 2544 563d eb0f 22bd

ArtWayClass/separable_conv2d/separable_conv2d/depthwise f4 [6]
0.0 0.0 0.0 0.0 0.0 0.0
00000000: 0000 0000 0000 0000 0000 0000 0000 0000
00000010: 0000 0000 0000 0000

ArtWayClass/separable_conv2d/separable_conv2d/depthwise1 f4 [1, 3, 3, 6]
-0.06812914 0.4491801 0.4645075 0.2144441 1.2816097 0.3466903 -0.29440287 0.41606867
0.6356149 -0.6189773 -0.31654212 -0.8818456 -0.4838132 -0.080821104 0.2913708 -0.44033894
-1.1072137 -0.99757653 0.33909437 0.92956585 1.1168547 0.22598791 0.9774808 0.24503893
0.14532518 -0.043134414 -0.16869685 1.4173455 0.703034 -0.43256792 0.1609399 -0.8352379
-0.21224265 -1.101499 -0.13448592 -0.6337294 1.3659484 0.7986611 0.3170345 -1.002168
-0.35455304 1.6712759 0.16201791 -0.24553256 -0.20028085 -0.14062326 0.10307832 -0.22006637
0.20925686 -0.23429288 -0.0012981886 -0.64823276 1.1847043 0.013596488
00000000: 4a87 8bbd effa e53e edd3 ed3e 3c97 5b3e
00000010: c90b a43f 6481 b13e f9bb 96be f406 d53e
00000020: a8b7 223f 4c75 1ebf cf11 a2be a2c0 61bf
00000030: 5db6 f7be 8985 a5bd 8e2e 953e 1b74 e1be
00000040: 2eb9 8dbf 2d61 7fbf c79d ad3e 07f8 6d3f
00000050: 18f5 8e3f 6069 673e 2f3c 7a3f 7ceb 7a3e
00000060: 20d0 143e b6ad 30bd debe 2cbe 946b b53f
00000070: 09fa 333f 8b79 ddbe 6ecd 243e 27d2 55bf
00000080: 2356 59be ebfd 8cbf adb6 09be 173c 22bf
00000090: 66d7 ae3f 0e75 4c3f 5952 a23e 0b47 80bf
000000a0: fa87 b5be 5eec d53f 06e8 253e e36c 7bbe
000000b0: 6c16 4dbe 8bff 0fbe ba1a d33d 1459 61be
000000c0: 6e47 563e 79ea 6fbe fb27 aaba 95f2 25bf
000000d0: 64a4 973f cec3 5e3c

ArtWayClass/separable_conv2d/separable_conv2d f4 [12, 1, 1, 6]
0.58749056 -0.4886127 0.63744074 0.19571367 -1.3640826 0.8932086 0.23410614 0.34899345
0.07668532 -0.7130532 0.90105623 0.071127996 0.31424403 0.67921686 -0.56123173 -0.053661812
-0.45350838 -0.057334445 -0.7384365 -0.8870915 0.057963233 1.57583 -0.46572626 -0.59297204
0.31472164 0.38969326 -0.090605296 -0.72878003 0.6685679 0.341195 -0.43525547 0.52678823
-0.76222444 -0.41685456 -0.59213215 0.76472706 0.31842995 -0.23896964 -1.313852 -0.38875303
-0.49064896 -0.012750578 0.56560296 0.45412037 0.5399705 -0.20618616 -0.47760686 0.64457136
0.7592942 0.46604434 -0.38584098 -0.3505998 -0.39203584 0.5396396 -0.12954913 -0.9883356
-0.08010866 -0.5163406 0.12641378 -1.3198861 -0.10325827 0.022296946 0.11038759 -0.70458007
-1.398168 -0.46517 0.4854749 0.08268823 -0.60710824 0.553385 -0.21264592 -0.47329
00000000: c865 163f 722b fabe 512f 233f 2a69 483e
00000010: 429a aebf 52a9 643f 85b9 6f3e 45af b23e
00000020: 310d 9d3d a88a 36bf 9fab 663f 8eab 913d
00000030: 98e4 a03e 28e1 2d3f e2ac 0fbf 7dcc 5bbd
00000040: 4032 e8be 86d7 6abd 2d0a 3dbf 6e18 63bf
00000050: db6a 6d3d ccb4 c93f ac73 eebe 04cd 17bf
00000060: 3223 a13e e085 c73e 458f b9bd 5491 3abf
00000070: 4427 2b3f 1cb1 ae3e ced9 debe 98db 063f
00000080: 2421 43bf f66d d5be f995 17bf 27c5 433f
00000090: 4009 a33e 75b4 74be 4d2c a8bf a30a c7be
000000a0: 5736 fbbe cde7 50bc 5bcb 103f 7782 e83e
000000b0: 823b 0a3f 7722 53be e388 f4be a102 253f
000000c0: 1b61 423f 5d9d ee3e f38c c5be d181 b3be
000000d0: ecb8 c8be d225 0a3f 87a8 04be 9003 7dbf
000000e0: 0210 a4bd e62e 04bf 9d72 013e 07f2 a8bf
000000f0: 1279 d3bd 16a8 b63c e412 e23d 5c5f 34bf
00000100: 2bf7 b2bf c32a eebe 2b90 f83e 7258 a93d
00000110: 726b 1bbf a4aa 0d3f dabf 59be 1153 f2be

ArtWayClass/separable_conv2d_1/separable_conv2d/depthwise f4 [1, 3, 3, 12]
-0.40659752 -0.076345235 0.72771853 0.027120512 0.43224272 -0.0057670255 -0.37604716 -0.2180693
0.09951689 0.17326324 0.12052239 -0.30908507 -0.91526395 -0.06057174 0.042249598 0.6135408
0.31786072 0.12513308 -0.3326794 0.10797466 -0.3435602 0.39563575 -0.43462524 -0.5669098
-0.17889644 -0.99977404 0.8557686 0.50386566 0.38277018 -0.1053574 -0.32917202 -0.31898063
0.21982467 0.6403858 -0.90882117 0.002705451 -0.5353151 0.18207419 0.55318654 0.4570375
0.1822844 0.7865515 -0.63830876 -0.4675997 0.4338916 0.10242122 -0.30542707 -0.15238485
-0.6516781 -0.18661344 0.053094275 0.64870083 -0.30327174 0.29445523 -0.6465247 0.34473854
-0.69481754 0.7351678 -0.39707866 -0.72313046 -0.63885653 -0.04908928 0.14553827 0.46299893
-0.15976612 0.1140149 -0.23478878 -0.067404404 0.13166502 0.8374108 -0.61428 -0.66782457
-0.3979278 -0.69325364 0.11193514 0.15611649 0.2502138 0.7637133 -0.16846384 -0.32608044
-0.25556198 0.1640926 -0.5806597 0.07028007 -0.2703375 0.15726739 -0.29029554 0.18741107
-0.60503626 0.75921315 -0.4785275 0.027359948 -0.10959593 0.7108196 -0.3788492 -0.028522616
-0.081666306 0.2838518 -0.019274611 0.19207256 -0.37756026 0.31863543 0.21798262 0.11228322
-0.38982192 0.43204927 -0.2541795 -0.1772703
00000000: 8d2d d0be e45a 9cbd c34b 3a3f d62b de3c
00000010: eb4e dd3e 51f9 bcbb 4189 c0be 8f4d 5fbe
00000020: 83cf cb3d eb6b 313e 71d4 f63d 6640 9ebe
00000030: bd4e 6abf 131a 78bd ea0d 2d3d 0311 1d3f
00000040: a4be a23e e322 003e f454 aabe d221 dd3d
00000050: 1fe7 afbe c590 ca3e 3387 debe 0021 11bf
00000060: a130 37be 31f1 7fbf a713 5b3f 57fd 003f
00000070: 74fa c33e 9fc5 d7bd 3c89 a8be 6e51 a3be
00000080: b819 613e 53f0 233f 81a8 68bf f04d 313b
00000090: 690a 09bf a871 3a3e a29d 0d3f d200 ea3e
000000a0: c3a8 3a3e 705b 493f 3468 23bf 3a69 efbe
000000b0: 0a27 de3e 37c2 d13d f060 9cbe c60a 1cbe
000000c0: 60d4 26bf 9817 3fbe 6279 593d 4211 263f
000000d0: 6f46 9bbe d6c2 963e a582 25bf 9281 b03e
000000e0: 90df 31bf f533 3c3f e54d cbbe 141f 39bf
000000f0: 1a8c 23bf d711 49bd fc07 153e 320e ed3e
00000100: bb99 23be a580 e93d 786c 70be 520b 8abd
00000110: 32d3 063e 8e60 563f 7441 1dbf 8df6 2abf
00000120: 31bd cbbe 1279 31bf 403e e53d 00dd 1f3e
00000130: 061c 803e b782 433f c981 2cbe 04f4 a6be
00000140: 05d9 82be e407 283e 1da6 14bf ffee 8f3d
00000150: ad69 8abe b40a 213e 9ea1 94be b0e8 3f3e
00000160: a8e3 1abf cb5b 423f 8e01 f5be f821 e03c
00000170: d573 e0bd 46f8 353f 86f8 c1be 43a8 e9bc
00000180: aa40 a7bd 0655 913e cae5 9dbc abae 443e
00000190: 944f c1be 2f24 a33e d636 5f3e bff4 e53d
000001a0: bd96 c7be 9035 dd3e d123 82be 5886 35be

ArtWayClass/separable_conv2d_1/separable_conv2d f4 [24, 1, 1, 12]
0.3318075 -0.14690703 -0.48980218 0.13894007 0.09777147 0.06221996 0.4597296 0.3310935
-0.20955919 -0.61985654 0.24158928 -0.060965374 0.07338477 -0.2398759 -0.43024856 0.05646231
0.038313705 -0.69707894 0.8044748 0.09923817 0.13015655 0.5357481 0.09827684 -0.26783153
0.16056089 0.045243215 0.28357565 -0.09132363 -0.07649738 0.1755612 -0.86507976 -0.0046646968
-0.46660718 0.4720459 0.15683475 -0.024322463 0.094462894 -0.1024387 0.065655425 0.18568717
0.05947966 -0.4043449 -0.72820514 -0.121712 -0.33378834 -0.7474624 -0.64977515 -0.37874284
-0.783413 0.14264923 -0.07302165 0.015048971 0.0498146 -0.39371964 -0.25384542 -0.18127014
0.30347073 -0.113154225 -0.49878076 0.24839595 1.0247608 -0.18014254 0.06639455 -0.11448394
0.06930187 0.5258727 -0.27915335 0.3412032 0.28905755 -0.7315808 0.5104681 -0.140923
-0.56195253 0.2230672 -0.26015002 0.034810264 0.4997217 -0.014010013 0.04414468 -0.15529253
0.053391255 -0.5415398 0.5563401 -0.37284845 0.11885904 0.08264407 -0.17353487 -0.6828558
-0.4264801 0.72255933 0.6156221 -0.1344685 -0.3269228 0.20263205 -0.6955432 0.43880084
-0.0042910697 0.18301788 -0.99269384 -0.40988287 0.36050126 -0.77821344 -0.19426747 -0.23224124
0.2335821 0.39354005 -0.7417173 0.44338036 1.0483633 -0.15961948 -0.21168895 -0.18980241
-0.15136905 -0.47322494 0.028495263 -0.23326711 0.7047668 0.763851 0.8089673 0.25580156
-1.2209272 -0.08173498 -0.39185464 0.9795467 0.3346499 -0.3213692 0.5748645 0.5927189
-0.24491574 0.52922773 0.45333588 -0.19860831 -0.030156784 0.0018318137 -0.4413347 0.017239895
-0.2731731 -0.42111874 -0.32840556 0.3511625 -0.7221278 -0.4682545 0.2922452 0.2529175
0.36759713 -0.4103119 -0.18080671 0.5579093 0.0635891 0.34231678 -0.81355476 0.51724184
0.08470833 -0.39285806 -0.79393506 0.32827586 0.5544224 0.72666717 -0.3265666 0.1548759
-0.6240658 -1.0735068 -0.13664979 0.07062082 0.45577306 0.614173 -0.24982585 -0.2818598
-0.952541 0.13154595 -0.26070377 -0.63782084 -0.24596198 -0.12075825 0.03777125 -0.0029587317
0.00016703844 -0.4661934 -0.13943331 0.5423159 -0.40894362 0.78353137 0.49418497 0.7510686
-0.13913283 -0.51413715 -0.23746511 -0.013611784 0.19789252 -0.09227955 -0.7696969 -0.15496765
-0.17716593 0.4505141 0.46042913 0.17093596 -0.6097494 0.6987813 0.031903677 -0.12888175
0.14951217 -0.51301974 -0.6322789 0.20267221 0.18223187 -0.29786956 0.28471753 0.21955584
-0.20212007 0.69961524 0.03799479 -0.0714492 0.20186122 0.27639374 0.29196787 0.5847843
0.17904365 0.59523666 0.15937072 -0.41550818 0.021577269 0.13677967 -0.09396534 -0.052077472
0.3900925 0.22307925 -0.2498943 0.48530802 -0.19560097 0.3398169 -0.11610281 0.6047366
0.049165424 0.46216562 -0.89554894 0.330785 -0.17873573 0.08529149 -0.38639036 0.09542998
-0.20142534 -0.08892479 -0.30164254 0.06552399 -0.09195016 -0.12564933 -0.3555977 0.29414746
-0.15690817 -0.8126157 -0.10973903 0.33166447 0.3318792 0.75480485 0.14456376 -0.23714215
00000000: ace2 a93e cc6e 16be 5ac7 fabe 4e46 0e3e
00000010: 693c c83d 5bda 7e3d ae61 eb3e 1685 a93e
00000020: af96 56be ebae 1ebf 2e63 773e d4b6 79bd
00000030: c14a 963d 07a2 75be 8a49 dcbe 0645 673d
00000040: d5ee 1c3d c473 32bf 0ff2 4d3f 623d cb3d
00000050: c247 053e ca26 093f 5e45 c93d 3721 89be
00000060: 136a 243e f350 393d d430 913e e207 bbbd
00000070: a9aa 9cbd 51c6 333e de75 5dbf 50da 98bb
00000080: 23e7 eebe 00b0 f13e 4a99 203e e73f c7bc
00000090: c375 c13d 62cb d1bd 5a76 863d c724 3e3e
000000a0: f2a0 733d 4b06 cfbe a76b 3abf 2444 f9bd
000000b0: 4ee6 aabe b259 3fbf aa57 26bf 95ea c1be
000000c0: c18d 48bf a412 123e 608c 95bd f68f 763c
000000d0: 650a 4c3d 9f95 c9be 07f8 81be e19e 39be
000000e0: 8460 9b3e 67bd e7bd 3160 ffbe 825b 7e3e
000000f0: 5d2b 833f 4977 38be def9 873d 8e76 eabd
00000100: 24ee 8d3d 989f 063f 30ed 8ebe 30b2 ae3e
00000110: 5aff 933e e148 3bbf 0aae 023f 1e4e 10be
00000120: 1fdc 0fbf ba6b 643e 6232 85be 3595 0e3d
00000130: 86db ff3e 418a 65bc 0dd1 343d 0105 1fbe
00000140: cab0 5a3d 5aa2 0abf 4e6c 0e3f fee5 bebe
00000150: 5e6c f33d 4b41 a93d 20b3 31be a3cf 2ebf
00000160: 9a5b dabe a6f9 383f 6999 1d3f 1cb2 09be
00000170: 6d62 a7be c77e 4f3e 1f0f 32bf 81aa e03e
00000180: 1a9c 8cbb 0a69 3b3e 2f21 7ebf 2bdc d1be
00000190: 9f93 b83e ff38 47bf 0dee 46be a6d0 6dbe
000001a0: 2530 6f3e 157e c93e 2fe1 3dbf c002 e33e
000001b0: c530 863f 4a73 23be fdc4 58be 905b 42be
000001c0: 7d00 1bbe 8a4a f2be e66e e93c 93dd 6ebe
000001d0: 996b 343f bd8b 433f 7b18 4f3f 6cf8 823e
000001e0: 5847 9cbf ab64 a7bd 2ca1 c8be 93c3 7a3f
000001f0: 3b57 ab3e 818a a4be 522a 133f 6dbc 173f
00000200: 31cb 7abe 787b 073f a41b e83e fa5f 4bbe
00000210: 5c0b f7bc 7819 f03a 9ff6 e1be ae3a 8d3c
00000220: 58dd 8bbe e09c d7be c624 a8be 92cb b33e
00000230: 5edd 38bf 0ebf efbe 2aa1 953e 677e 813e
00000240: b135 bc3e 6714 d2be 6525 39be 25d3 0e3f
00000250: 013b 823d 2544 af3e 2045 50bf f669 043f
00000260: 907b ad3d b124 c9be 543f 4bbf c613 a83e
00000270: a0ee 0d3f dc06 3a3f bd33 a7be ca97 1e3e
00000280: c7c2 1fbf ac68 89bf eced 0bbe a6a1 903d
00000290: 165b e93e 713a 1d3f 59d2 7fbe ed4f 90be
000002a0: bad9 73bf fbb3 063e f77a 85be 3a48 23bf
000002b0: 75dd 7bbe 1a50 f7bd 07b6 1a3d 48e7 41bb
000002c0: 0a27 2f39 e7b0 eebe 9bc7 0ebe 37d5 0a3f
000002d0: 0f61 d1be 8395 483f d005 fd3e 0846 403f
000002e0: d678 0ebe 7e9e 03bf 0e2a 73be f603 5fbc
000002f0: 56a4 4a3e 10fd bcbd db0a 45bf d7af 1ebe
00000300: fc6a 35be c9a9 e63e 5ebd eb3e d609 2f3e
00000310: 8918 1cbf 55e3 323f 6ead 023d 94f9 03be
00000320: b819 193e 4355 03bf 08dd 21bf 4e89 4f3e
00000330: fe9a 3a3e 5c82 98be 7fc6 913e 3fd3 603e
00000340: 90f8 4ebe fc19 333f 6da0 1b3d f553 92bd
00000350: b5b4 4e3e 7b83 8d3e d07c 953e 6db4 153f
00000360: 3857 373e 6e61 183f 1432 233e 7dbd d4be
00000370: d0c2 b03c f80f 0c3e e670 c0bd 304f 55bd
00000380: 34ba c73e e36e 643e 4be4 7fbe 4b7a f83e
00000390: 9f4b 48be 7bfc ad3e 4fc7 edbd 05d0 1a3f
000003a0: af61 493d f9a0 ec3e b242 65bf a75c a93e
000003b0: 8006 37be 4ead ae3d f5d4 c5be cb70 c33d
000003c0: 7242 4ebe 331e b6bd e470 9abe 7131 863d
000003d0: 5e50 bcbd 38aa 00be e710 b6be 7f9a 963e
000003e0: 89ac 20be 9507 50bf dbbe e0bd edcf a93e
000003f0: 12ec a93e e43a 413f 8608 143e 64d5 72be

ArtWayClass/separable_conv2d_2/separable_conv2d/depthwise f4 [24]
0.0 0.0 0.0 0.0 0.0 0.0 0.0 0.0
0.0 0.0 0.0 0.0 0.0 0.0 0.0 0.0
0.0 0.0 0.0 0.0 0.0 0.0 0.0 0.0
00000000: 0000 0000 0000 0000 0000 0000 0000 0000
00000010: 0000 0000 0000 0000 0000 0000 0000 0000
00000020: 0000 0000 0000 0000 0000 0000 0000 0000
00000030: 0000 0000 0000 0000 0000 0000 0000 0000
00000040: 0000 0000 0000 0000 0000 0000 0000 0000
00000050: 0000 0000 0000 0000 0000 0000 0000 0000

ArtWayClass/separable_conv2d_2/separable_conv2d/depthwise1 f4 [1, 3, 3, 24]
-0.3695975 1.1364689 -0.6133512 0.11460012 -0.32131785 0.6473184 0.58048433 0.020926394
-0.5398475 -0.6240745 0.46597812 -0.38720563 -0.41316116 0.3213252 0.669231 0.18497378
-0.31308165 -0.26203886 0.3571861 0.07024028 -0.16609533 0.31523925 -0.09636912 -0.4545999
-0.017448425 -0.59686476 -0.21274692 -0.38465792 0.2903731 0.34626293 -0.18792821 0.24446222
-0.27423042 -0.36054397 0.58056456 -0.4846635 -0.21425296 0.61915606 0.10727057 0.69272274
-0.20750874 0.56675315 -0.24150598 -0.30245832 0.4188322 0.28536075 0.6273006 -0.15683049
-0.47773546 -0.42094517 -0.36198688 -0.52424836 0.34679964 0.20141946 0.10468457 -0.15050966
0.031134766 0.33694917 0.104620986 -0.096837 -0.5086655 -0.19414411 0.29196247 1.2993788
0.6026503 0.16630575 -0.4129463 0.35587958 -0.59225786 0.8604261 -0.5184041 -0.5790621
-0.07841693 0.18659826 -0.56178474 -0.0026700515 -0.024120975 0.60434365 0.38507244 -0.28482378
-0.18924107 0.5093428 0.3855295 0.25095883 -0.14875568 0.70518243 0.6663258 -0.09743401
-0.45364133 0.29436633 -0.036613103 -0.4274008 -0.056813717 -0.7328099 -0.15939738 0.109956004
-0.55818117 0.05041793 -0.040996265 -0.4670129 0.0065774065 0.0055998103 -0.59508014 0.47388762
-0.4710378 0.735228 0.76087147 -0.41125193 0.0015157575 0.16139175 0.08517246 0.006420884
-0.35525596 0.2544692 0.32672215 -0.103728116 0.19052868 -0.532257 0.86800903 -0.001621726
-0.22161916 0.55750155 -0.08607751 -0.32208753 0.8753121 0.16658495 -0.5238029 -0.5534957
-0.5504825 0.7263183 -0.10264014 0.13469562 -0.2940601 0.38542005 0.25352374 0.2160016
-0.09074613 0.034908075 0.45364073 -0.0028838888 -0.32176086 -0.19856548 0.13545966 -0.11264155
0.18430692 0.010649586 0.44197205 0.44929618 -0.5855797 0.63367045 0.3566227 -0.54540145
-0.4676507 0.2899748 0.32127193 0.42658827 -0.2913147 0.5753197 0.21758251 0.47504407
-0.41012898 -0.83390874 -0.14504008 -1.5089104 0.1358544 -0.20663005 -0.51741046 -0.18304236
-0.12907818 -0.13846646 -0.20286638 -0.031931236 0.44931817 -0.22931804 -0.12765574 -0.57138115
-0.58192235 0.048565526 0.29080442 0.18482776 -0.50188696 0.103087485 0.23764569 -0.13150805
-0.7139633 0.006520943 0.58697534 -0.49945542 0.48276746 -0.08038675 -0.54359215 0.01514479
-0.40854418 0.15809664 -0.4045736 -0.48535204 -0.024790613 -0.55077845 0.08571942 -0.61469144
0.22919706 0.42688024 0.309853 -0.039030343 -0.5004265 0.32779226 0.54989 -0.11576931
-0.48991844 -0.25381017 0.30577323 0.28491133 0.13763696 0.50197375 -0.489642 -1.101129
00000000: e23b bdbe d077 913f 9604 1dbf 78b3 ea3d
00000010: c683 a4be a9b6 253f 9f9a 143f d46d ab3c
00000020: 7233 0abf 59c3 1fbf af94 ee3e d13f c6be
00000030: dc89 d3be bd84 a43e b952 2b3f c469 3d3e
00000040: 3d4c a0be f529 86be 19e1 b63e 23da 8f3d
00000050: e514 2abe 0a67 a13e 2c5d c5bd 51c1 e8be
00000060: 00f0 8ebc 21cc 18bf 54da 59be e2f1 c4be
00000070: c8ab 943e 6049 b13e 4170 40be 4e54 7a3e
00000080: ee67 8cbe 3899 b8be e19f 143f d025 f8be
00000090: 2165 5bbe 0381 1e3f acb0 db3d 4756 313f
000000a0: 2c7d 54be bc16 113f 584d 77be d1db 9abe
000000b0: 2d71 d63e ce1a 923e c696 203f 2c98 20be
000000c0: be99 f4be 2086 d7be 5856 b9be 2435 06bf
000000d0: b98f b13e e740 4e3e dd64 d63d 341f 1abe
000000e0: 560e ff3c 9a84 ac3e 8743 d63d 7a52 c6bd
000000f0: e737 02bf b7cd 46be 1b7c 953e 0b52 a63f
00000100: 4a47 1a3f 0e4c 2a3e b36d d3be d935 b63e
00000110: 369e 17bf e344 5c3f 22b6 04bf 6a3d 14bf
00000120: 0e99 a0bd 9d13 3f3e 20d1 0fbf 08fc 2ebb
00000130: 5a99 c5bc 44b6 1a3f 3728 c53e 6cd4 91be
00000140: 69c8 41be 4a64 023f 1f64 c53e ad7d 803e
00000150: 6953 18be d686 343f 5494 2a3f 7b8b c7bd
00000160: ad43 e8be 2fb7 963e 9ff7 15bd 47d4 dabe
00000170: 80b5 68bd 6e99 3bbf 1139 23be 9d30 e13d
00000180: f6e4 0ebf 0883 4e3d b3eb 27bd 511c efbe
00000190: 4987 d73b 9d7e b73b 2c57 18bf 66a1 f23e
000001a0: de2b f1be e737 3c3f 79c8 423f 9d8f d2be
000001b0: 62ac c63a e143 253e e66e ae3d 4766 d23b
000001c0: 1ce4 b5be c949 823e 2048 a73e 686f d4bd
000001d0: f319 433e ff41 08bf d735 5e3f 1890 d4ba
000001e0: 22f0 62be 6cb8 0e3f 6849 b0bd a8e8 a4be
000001f0: 7414 603f 3f95 2a3e f217 06bf e5b1 0dbf
00000200: 6cec 0cbf ffef 393f fe34 d2bd a6ed 093e
00000210: 0c8f 96be c755 c53e ddcd 813e 862f 5d3e
00000220: 1bd9 b9bd c5fb 0e3d 9943 e83e a0ff 3cbb
00000230: d7bd a4be c054 4bbe f0b5 0a3e 9db0 e6bd
00000240: f4ba 3c3e 9a7b 2e3c 294a e23e 260a e63e
00000250: 8de8 15bf 3a38 223f 4097 b63e 6e9f 0bbf
00000260: ea6f efbe 9477 943e c17d a43e c769 da3e
00000270: 3327 95be 2748 133f f3cd 5e3e fa38 f33e
00000280: 6dfc d1be 0b7b 55bf 6385 14be fa23 c1bf
00000290: 6a1d 0b3e d496 53be 0375 04bf 756f 3bbe
000002a0: 122d 04be 27ca 0dbe 34bc 4fbe 54ca 02bd
000002b0: 080d e63e 59d2 6abe 30b8 02be 0946 12bf
000002c0: ddf8 14bf a5ec 463d 51e4 943e 7d43 3d3e
000002d0: aa7b 00bf 881f d33d 6459 733e 0caa 06be
000002e0: 4dc6 36bf a2ad d53b 0444 163f 9fb8 ffbe
000002f0: 4c2d f73e cfa1 a4bd db28 0bbf da21 783c
00000300: b42c d1be 16e4 213e 4524 cfbe 1080 f8be
00000310: af15 cbbc d1ff 0cbf aa8d af3d 6b5c 1dbf
00000320: a2b2 6a3e 0c90 da3e 0da5 9e3e 48de 1fbd
00000330: f31b 00bf 63d4 a73e 97c5 0c3f 7618 edbd
00000340: 97d6 fabe 68f3 81be 4f8e 9c3e e6df 913e
00000350: b4f0 0c3e 5a81 003f 5bb2 fabe ccf1 8cbf

ArtWayClass/separable_conv2d_2/separable_conv2d f4 [12, 1, 1, 24]
0.44902888 -0.53484064 0.024347264 0.101631254 0.73130405 -0.258987 0.04779815 0.7719155
-0.44376764 -0.22780304 -0.01017113 0.3585904 0.6049576 0.8301344 0.5631107 -0.99118143
0.5042151 0.17797269 0.22016121 0.98260826 0.1618629 0.7394844 0.76833445 -0.9410068
-0.7197953 -0.25038114 0.14095911 0.21847798 0.015314639 -0.14502002 0.7025955 0.42915744
-0.3598734 -0.072428964 -0.64889735 0.08393711 -0.9018788 -0.12986231 -0.15162955 -0.29720268
0.26023543 -0.0053344406 -0.008096309 -0.84027565 0.19392565 0.42853424 0.085879184 0.03537676
0.5431687 -0.07894151 0.12710536 0.091378324 -0.27786684 -0.00054491044 -0.4879638 0.33864012
-0.25311553 -0.6248943 -0.25499892 0.047019992 -0.01652268 -0.039522916 -0.66330737 -0.054923
0.4298474 0.13038693 -0.11438529 0.43432766 -0.21534066 0.3743547 -0.098276384 0.25977308
-0.29545385 1.0918055 0.11161848 0.20719564 -0.6466357 0.22632653 -0.5162388 -0.8680757
0.2875569 0.28396288 -0.48038146 -0.42623782 -0.0867037 0.15639013 -0.40710866 -0.61695933
0.006305839 -0.28125516 -0.12869467 0.31514186 0.03335113 0.82923716 -0.57117933 -0.17871626
-0.39751497 -0.79652315 -0.92382073 0.39752254 0.49173886 -0.63834643 0.024665091 -0.6823545
-0.5086311 -0.036431797 -0.15601943 -0.2597514 -0.10194558 -0.15695587 0.27741653 0.058480192
0.2133993 0.39264902 0.48380196 -0.3356648 0.021482464 -0.04633855 0.22380017 -0.49206772
0.3846003 -0.50574106 0.23345046 -0.016211048 -0.017273335 -0.43783417 -0.30915 0.09001313
0.33705363 -0.81442463 -0.158388 -0.3193543 0.067410864 -0.55172396 -0.28179675 0.08397689
-0.11076451 -0.15534551 -0.58677155 -0.069498196 0.27844825 0.07896036 -0.5550575 0.068336956
-0.5293483 -0.27630436 0.076596186 0.26586896 0.5277018 0.7516954 -0.08238059 0.28839496
0.53169644 0.72975343 -0.592599 -0.13658392 0.30603155 -0.0040382477 -0.4288949 0.9589995
0.2817259 -0.4683803 0.16576841 0.37772155 -0.5555266 -0.048536774 -0.27198082 0.23521529
0.014839108 -0.10546831 -0.51539385 -0.1179311 -0.013565444 0.036043573 -0.13962488 0.17720105
-0.14197046 0.84270054 -0.31570825 0.13633786 -0.23270197 0.23485008 -0.35711664 0.45683426
0.64243644 0.12222468 0.32070655 1.2560158 -0.66201687 -0.018176695 -0.29920048 -1.0128264
0.05633896 -0.060805544 -0.16415441 0.22568908 0.17297375 0.044892 0.71625113 -0.20391348
0.19652502 0.53294414 -0.15778229 -0.19080232 -0.33935267 0.18977684 0.121122316 -1.0774806
-0.44672588 0.35638165 0.49811003 -0.1773402 -0.22032581 0.06845153 -0.63380206 0.29491714
-0.25901556 0.050720043 0.84600157 0.0888792 -0.047485754 -0.72131073 -0.059435274 -0.21927135
0.690191 -0.6024219 0.8903586 -0.17781289 0.8599385 -0.053351585 -0.73469067 -0.43324214
0.92443407 0.23109153 0.41269267 -0.029974062 0.36874664 0.06499971 0.05245408 0.01896122
0.7742448 -0.0664768 -0.043318063 0.2565346 0.5491184 -0.020333929 0.11334288 0.057255927
0.251837 -0.14200333 0.813758 0.25584605 0.70873 0.2102789 -0.3238404 -0.19207565
00000000: 1de7 e53e 51eb 08bf ea73 c73c 0c24 d03d
00000010: be36 3b3f f299 84be fec7 433d 419c 453f
00000020: 8335 e3be 3345 69be d0a4 26bc 2999 b73e
00000030: 80de 1a3f b083 543f 0628 103f 11be 7dbf
00000040: 3e14 013f 793e 363e f171 613e 378c 7b3f
00000050: 63bf 253e da4e 3d3f 91b1 443f d2e5 70bf
00000060: 8144 38bf f531 80be 9657 103e b1b8 5f3e
00000070: 40ea 7a3c 2180 14be 4cdd 333f 86ba db3e
00000080: 5441 b8be a355 94bd 231e 26bf 38e7 ab3d
00000090: 87e1 66bf a0fa 04be c744 1bbe f32a 98be
000000a0: 943d 853e 88cc aebb 62a6 04bc 4e1c 57bf
000000b0: 7294 463e d768 db3e 6de1 af3d 39e7 103d
000000c0: 1b0d 0b3f 16ac a1bd e827 023e 8f24 bb3d
000000d0: 9044 8ebe 52d8 0eba 64d6 f9be 3d62 ad3e
000000e0: 5c98 81be 13f9 1fbf 388f 82be 0998 403d
000000f0: 925a 87bc c8e2 21bd 83ce 29bf f1f6 60bd
00000100: f514 dc3e 2784 053e d642 eabd 3260 de3e
00000110: 4382 5cbe 6bab bf3e 2145 c9bd fa00 853e
00000120: ba45 97be 48c0 8b3f 3b98 e43d 182b 543e
00000130: eb89 25bf 24c2 673e 3a28 04bf 363a 5ebf
00000140: a83a 933e 9563 913e 8ff4 f5be d83b dabe
00000150: b691 b1bd bc24 203e 8c70 d0be 0cf1 1dbf
00000160: 36a1 ce3b ad00 90be 89c8 03be 465a a13e
00000170: 329b 083d e348 543f cf38 12bf 6501 37be
00000180: 1587 cbbe f1e8 4bbf 847f 6cbf 1388 cb3e
00000190: 32c5 fb3e ac6a 23bf 720e ca3c c9ae 2ebf
000001a0: a635 02bf 8239 15bd 8fc3 1fbe 23fe 84be
000001b0: d8c8 d0bd 0ab9 20be 8a09 8e3e ed88 6f3d
000001c0: 5985 5a3e 4b09 c93e e4b4 f73e 42dc abbe
000001d0: fefb af3c 7ecd 3dbd df2b 653e 4df0 fbbe
000001e0: 55ea c43e 3f78 01bf a30d 6f3e 08cd 84bc
000001f0: cf80 8dbc cd2b e0be e948 9ebe ce58 b83d
00000200: 4b92 ac3e 227e 50bf 7730 22be 6882 a3be
00000210: b50e 8a3d c83d 0dbf aa47 90be 13fc ab3d
00000220: 81d8 e2bd e512 1fbe a936 16bf 1255 8ebd
00000230: c590 8e3e f8b5 a13d 4018 0ebf 3ff4 8b3d
00000240: 5f83 07bf c477 8dbe 76de 9c3d fa1f 883e
00000250: 7717 073f 1c6f 403f 28b7 a8bd 81a8 933e
00000260: 421d 083f 1fd1 3a3f 91b4 17bf a8dc 0bbe
00000270: 2bb0 9c3e 4753 84bb 1d98 dbbe fe80 753f
00000280: 613e 903e 8bcf efbe 32bf 293e b864 c13e
00000290: fe36 0ebf 7fce 46bd 1241 8bbe 47dc 703e
000002a0: bb1f 733c c5ff d7bd daf0 03bf dc85 f1bd
000002b0: 9941 5ebc 6da2 133d d3f9 0ebe 3174 353e
000002c0: b460 11be 39bb 573f 83a4 a1be 279c 0b3e
000002d0: 6d49 6ebe 8a7c 703e fed7 b6be 2ee6 e93e
000002e0: b776 243f ef50 fa3d a633 a43e 20c5 a03f
000002f0: f079 29bf 4be7 94bc ce30 99be 4ca4 81bf
00000300: aec3 663d 3c0f 79bd 1818 28be 0a1b 673e
00000310: 0820 313e ace0 373d 3c5c 373f b2ce 50be
00000320: db3d 493e 076f 083f ae91 21be af61 43be
00000330: a2bf adbe dc54 423e fa0e f83d e2ea 89bf
00000340: 41b9 e4be a877 b63e 4708 ff3e ab98 35be
00000350: 179d 61be 5130 8c3d da40 22bf 61ff 963e
00000360: b09d 84be d2bf 4f3d 8f93 583f 4c06 b63d
00000370: 6c80 42bd d2a7 38bf 6772 73bd ab88 60be
00000380: 5bb0 303f 5238 1abf 8bee 633f 9514 36be
00000390: ee24 5c3f 3187 5abd b014 3cbf ead1 ddbe
000003a0: b6a7 6c3f 42a3 6c3e 744c d33e 2a8c f5bc
000003b0: 5ccc bc3e 911e 853d 17da 563d 8f54 9b3c
000003c0: e834 463f fd24 88bd 486e 31bd 8158 833e
000003d0: 0693 0c3f 5793 a6bc 5020 e83d 3185 6a3d
000003e0: c7f0 803e 5269 11be 7252 503f 41fe 823e
000003f0: 546f 353f 5a53 573e 69ce a5be 7baf 44be

ArtWayClass/separable_conv2d_3/separable_conv2d/depthwise f4 [1, 3, 3, 12]
0.2775718 0.13437124 -0.14962141 -0.66953146 0.38006237 0.07585115 0.87492317 0.20914277
-0.5300474 -0.8197034 -0.14763041 -0.6525386 0.71294546 0.34100416 0.35037667 -0.7601214
0.5795043 -0.02607712 0.3810987 0.06922708 -0.7974931 -0.3732911 -0.023180366 -0.38229293
0.48989087 -0.058242492 0.27249742 -0.77914363 0.53958356 -0.037572857 0.5066382 0.45159233
-0.8986349 -0.10143074 0.056447383 -0.40338925 0.6397906 0.650783 0.4824606 -0.4651001
-0.383348 0.13501859 0.51761365 0.044907905 0.0433236 -0.29016802 -0.127013 -0.35936886
0.6144014 0.60593605 -0.0025239005 -0.36385515 0.3228378 -0.822081 0.1584596 0.7672978
-0.073191345 -0.3230403 0.50902253 -0.37331966 0.5254303 -0.023123667 -0.03914135 -0.13191621
0.37505716 -0.77731556 0.62614834 0.29371542 -0.028629255 -0.15047865 0.27039376 -0.25014538
0.5430516 0.7206038 0.65441924 -0.2847517 0.25727335 0.27069512 -0.10083105 0.57896334
0.026262764 -0.80708265 -0.49136165 -0.6777094 0.5345243 0.3292572 0.4790513 -0.08534742
0.6089587 -0.09592656 0.17809592 0.671924 0.16846624 -0.47135165 0.49615988 -0.43643472
0.44657975 0.26969174 0.1610438 0.4307977 0.7396063 -0.34251803 0.34773657 0.20241386
0.059224457 0.12354067 1.0161887 -0.619605
00000000: e41d 8e3e 9d98 093e 5b36 19be 6a66 2bbf
00000010: 8997 c23e d957 9b3d f7fa 5f3f 8629 563e
00000020: 30b1 07bf 15d8 51bf 6d2c 17be c50c 27bf
00000030: 9883 363f 1998 ae3e 9264 b33e 5197 42bf
00000040: 655a 143f af9f d5bc 5e1f c33e edc6 8d3d
00000050: 8228 4cbf 0320 bfbe c0e4 bdbc e6bb c3be
00000060: fad2 fa3e ae8f 6ebd c884 8b3e f575 47bf
00000070: 2622 0a3f ffe5 19bd 0bb3 013f 1c37 e73e
00000080: f00c 66bf ebba cfbd 5f35 673d 0989 cebe
00000090: 51c9 233f b799 263f 1305 f73e 9a21 eebe
000000a0: 3046 c4be 5042 0a3e 5482 043f 5af1 373d
000000b0: 1674 313d e790 94be b20f 02be 32ff b7be
000000c0: 6949 1d3f a01e 1b3f 0668 25bb 394b babe
000000d0: ff4a a53e e773 52bf 3c43 223e a16d 443f
000000e0: 58e5 95bd 8a65 a5be 4d4f 023f c123 bfbe
000000f0: 9a82 063f d86d bdbc ae52 20bd 0b15 07be
00000100: 7e07 c03e 27fe 46bf 424b 203f de61 963e
00000110: e687 eabc 1317 1abe 0d71 8a3e 0e13 80be
00000120: 6e05 0b3f 7e79 383f 0588 273f faca 91be
00000130: 55b9 833e 8d98 8a3e 8280 cebd f136 143f
00000140: 0225 d73c f89c 4ebf c193 fbbe 5d7e 2dbf
00000150: 96d6 083f 6694 a83e 3646 f53e a1ca aebd
00000160: b8e4 1b3f 2575 c4bd c75e 363e 3603 2c3f
00000170: 6a82 2c3e 0155 f1be ab08 fe3e 5f74 dfbe
00000180: 1aa6 e43e 0915 8a3e aae8 243e 8491 dc3e
00000190: d756 3d3f 865e afbe 870a b23e 9445 4f3e
000001a0: 5895 723d e402 fd3d 7912 823f 6f9e 1ebf

ArtWayClass/separable_conv2d_3/separable_conv2d f4 [12]
0.0 0.0 0.0 0.0 0.0 0.0 0.0 0.0
0.0 0.0 0.0 0.0
00000000: 0000 0000 0000 0000 0000 0000 0000 0000
00000010: 0000 0000 0000 0000 0000 0000 0000 0000
00000020: 0000 0000 0000 0000 0000 0000 0000 0000

ArtWayClass/separable_conv2d_3/separable_conv2d1 f4 [12, 1, 1, 12]
-0.31132454 -0.41910452 0.2843775 0.040291194 -0.17457347 -0.17216149 -0.5968478 -0.6162836
0.46337545 0.81472415 0.677922 -0.6514241 0.9039444 -0.30743065 0.14900675 -0.24720658
0.34599316 -0.23455115 0.46231893 0.55901206 0.5705602 -0.09554349 -0.47895578 0.41322207
0.7354652 -0.15805292 -0.36116895 0.030521872 -0.07169151 -0.7204911 0.30234107 0.009276975
-0.45516998 0.4395545 -0.38646373 1.0381007 0.59676045 0.65715927 0.22684827 -0.21681428
0.09095743 -0.6716116 1.06378 0.3865145 -0.27652705 -0.4180144 -0.072295845 -0.8336879
0.43708122 0.11259484 -0.35201743 1.1539232 -1.3153236 0.42106667 0.24806564 -0.7820012
0.9005271 -0.34943897 -0.05882676 -0.38887176 -0.069901735 0.083940595 0.87942517 -0.83631593
0.48114714 -0.06993819 0.098198205 0.30303794 0.17338039 0.10890491 -0.7681132 0.8451341
1.1226722 0.20546441 0.48871633 0.28136203 -0.89088964 -0.0716772 0.14302519 -0.35025647
0.7809961 0.04628475 0.4743423 -0.48763302 0.6765185 0.04866114 -0.15607764 -0.11232627
-0.41941205 -0.22806177 -0.53527814 0.005770647 -0.53597975 -1.1237454 -0.18478729 0.20785196
-0.44425353 0.7599671 0.071237564 0.26396668 -0.14710905 0.34329286 0.8347491 0.7824169
-0.07038608 0.45984134 0.13553967 0.32218412 -0.5321541 0.80296683 0.45691267 0.7539362
0.05074875 0.6891598 0.18913622 -0.12703322 -0.023397038 0.3956784 -0.783206 0.6618574
-0.5208358 -0.6574964 0.31937996 0.7819942 1.0903394 0.010745767 0.06652574 -0.74799854
-0.0520774 -0.12874633 0.39912033 0.7575106 -0.20456505 0.37719008 -0.34692273 -0.36067793
-0.09352082 -0.726579 0.9724103 0.47513083 0.28115237 0.5509886 -0.1949654 0.56704545
00000000: ee65 9fbe de94 d6be ed99 913e 6108 253d
00000010: 63c3 32be 1a4b 30be 04cb 18bf c3c4 1dbf
00000020: 8c3f ed3e c391 503f 4c8c 2d3f bbc3 26bf
00000030: e668 673f 8d67 9dbe 3a95 183e b923 7dbe
00000040: 0426 b13e 2d2e 70be 11b5 ec3e 6a1b 0f3f
00000050: 3c10 123f 4eac c3bd b139 f5be d891 d33e
00000060: 7347 3c3f a0d8 21be 23eb b8be 0109 fa3c
00000070: 00d3 92bd 1b72 38bf 73cc 9a3e 74fe 173c
00000080: 0a0c e9be 4a0d e13e 93de c5be 7ce0 843f
00000090: 4bc5 183f 973b 283f ea4a 683e 9004 5ebe
000000a0: e447 ba3d bdee 2bbf f129 883f 3be5 c53e
000000b0: f494 8dbe fc05 d6be d80f 94bd 926c 55bf
000000c0: 1cc9 df3e 2098 e63d a13b b4be c1b3 933f
000000d0: 865c a8bf 0d96 d73e eb04 7e3e 3b31 48bf
000000e0: f288 663f aae9 b2be 54f4 70bd 331a c7be
000000f0: a428 8fbd 0ce9 ab3d 0222 613f cd18 56bf
00000100: eb58 f63e c13b 8fbd 241c c93d ca27 9b3e
00000110: a18a 313e 8a09 df3d 11a3 44bf b55a 583f
00000120: b9b3 8f3f 4365 523e 0739 fa3e af0e 903e
00000130: 5811 64bf 7fcb 92bd 3275 123e d154 b3be
00000140: 5cef 473f 1495 3d3d fedc f23e 09ab f9be
00000150: 5130 2d3f e750 473d d1d2 1fbe 510b e6bd
00000160: 2dbd d6be 0689 69be fd07 09bf b217 bd3b
00000170: f835 09bf e4d6 8fbf e138 3dbe 25d7 543e
00000180: 3375 e3be 348d 423f 00e5 913d a426 873e
00000190: c1a3 16be 15c4 af3e 1eb2 553f 794c 483f
000001a0: 9426 90bd 5370 eb3e e9ca 0a3e 51f5 a43e
000001b0: 403b 08bf 3c8f 4d3f 75f0 e93e f601 413f
000001c0: ecdd 4f3d c76c 303f edac 413e ff14 02be
000001d0: 25ab bfbc 5c96 ca3e 3080 48bf 7d6f 293f
000001e0: 7f55 05bf af51 28bf c585 a33e c630 483f
000001f0: 3e90 8b3f 030f 303c a63e 883d d57c 3fbf
00000200: 1d4f 55bd 14d6 03be 8059 cc3e 37ec 413f
00000210: 8079 51be 0f1f c13e db9f b1be c7aa b8be
00000220: d887 bfbd 1501 3abf e2ef 783f 5944 f33e
00000230: 34f3 8f3e 970d 0d3f 03a5 47be e429 113f
